…
el from scratch...\n","Downloading: \"https://download.pytorch.org/models/fasterrcnn_resnet50_fpn_v2_coco-dd69338a.pth\" to /root/.cache/torch/hub/checkpoints/fasterrcnn_resnet50_fpn_v2_coco-dd69338a.pth\n","100% 167M/167M [00:00<00:00, 192MB/s]\n","====================================================================================================\n","Layer (type:depth-idx)                             Output Shape              Param #\n","====================================================================================================\n","FasterRCNN                                         [100, 4]                  --\n","├─GeneralizedRCNNTransform: 1-1                    [16, 3, 800, 800]         --\n","├─BackboneWithFPN: 1-2                             [16, 256, 13, 13]         --\n","│    └─IntermediateLayerGetter: 2-1                [16, 2048, 25, 25]        --\n","│    │    └─Conv2d: 3-1                            [16, 64, 400, 400]        (9,408)\n","│    │    └─BatchNorm2d: 3-2                       [16, 64, 400, 400]        (128)\n","│    │    └─ReLU: 3-3                              [16, 64, 400, 400]        --\n","│    │    └─MaxPool2d: 3-4                         [16, 64, 200, 200]        --\n","│    │    └─Sequential: 3-5                        [16, 256, 200, 200]       (215,808)\n","│    │    └─Sequential: 3-6                        [16, 512, 100, 100]       1,219,584\n","│    │    └─Sequential: 3-7                        [16, 1024, 50, 50]        7,098,368\n","│    │    └─Sequential: 3-8                        [16, 2048, 25, 25]        14,964,736\n","│    └─FeaturePyramidNetwork: 2-2                  [16, 256, 13, 13]         --\n","│    │    └─ModuleList: 3-15                       --                        (recursive)\n","│    │    └─ModuleList: 3-16                       --                        (recursive)\n","│    │    └─ModuleList: 3-15                       --                        (recursive)\n","│    │    └─ModuleList: 3-16                       --                        (recursive)\n","│    │    └─ModuleList: 3-15                       --                        (recursive)\n","│    │    └─ModuleList: 3-16                       --                        (recursive)\n","│    │    └─ModuleList: 3-15                       --                        (recursive)\n","│    │    └─ModuleList: 3-16                       --                        (recursive)\n","│    │    └─LastLevelMaxPool: 3-17                 [16, 256, 200, 200]       --\n","├─RegionProposalNetwork: 1-3                       [1000, 4]                 --\n","│    └─RPNHead: 2-3                                [16, 3, 200, 200]         --\n","│    │    └─Sequential: 3-18                       [16, 256, 200, 200]       1,180,160\n","│    │    └─Conv2d: 3-19                           [16, 3, 200, 200]         771\n","│    │    └─Conv2d: 3-20                           [16, 12, 200, 200]        3,084\n","│    │    └─Sequential: 3-21                       [16, 256, 100, 100]       (recursive)\n","│    │    └─Conv2d: 3-22                           [16, 3, 100, 100]         (recursive)\n","│    │    └─Conv2d: 3-23                           [16, 12, 100, 100]        (recursive)\n","│    │    └─Sequential: 3-24                       [16, 256, 50, 50]         (recursive)\n","│    │    └─Conv2d: 3-2
…
 └─Sequential: 3-27                       [16, 256, 25, 25]         (recursive)\n","│    │    └─Conv2d: 3-28                           [16, 3, 25, 25]           (recursive)\n","│    │    └─Conv2d: 3-29                           [16, 12, 25, 25]          (recursive)\n","│    │    └─Sequential: 3-30                       [16, 256, 13, 13]         (recursive)\n","│    │    └─Conv2d: 3-31                           [16, 3, 13, 13]           (recursive)\n","│    │    └─Conv2d: 3-32                           [16, 12, 13, 13]          (recursive)\n","│    └─AnchorGenerator: 2-4                        [159882, 4]               --\n","├─RoIHeads: 1-4                                    [100, 4]                  --\n","│    └─MultiScaleRoIAlign: 2-5                     [16000, 256, 7, 7]        --\n","│    └─FastRCNNConvFCHead: 2-6                     [16000, 1024]             --\n","│    │    └─Conv2dNormActivation: 3-33             [16000, 256, 7, 7]        590,336\n","│    │    └─Conv2dNormActivation: 3-34             [16000, 256, 7, 7]        590,336\n","│    │    └─Conv2dNormActivation: 3-35             [16000, 256, 7, 7]        590,336\n","│    │    └─Conv2dNormActivation: 3-36             [16000, 256, 7, 7]        590,336\n","│    │    └─Flatten: 3-37                          [16000, 12544]            --\n","│    │    └─Linear: 3-38                           [16000, 1024]             12,846,080\n","│    │    └─ReLU: 3-39                             [16000, 1024]             --\n","│    └─FastRCNNPredictor: 2-7                      [16000, 7]                --\n","│    │    └─Linear: 3-40                           [16000, 7]                7,175\n","│    │    └─Linear: 3-41                           [16000, 28]               28,700\n","====================================================================================================\n","Total params: 43,281,778\n","Trainable params: 43,056,434\n","Non-trainable params: 225,344\n","Total mult-adds (T): 4.48\n","====================================================================================================\n","Input size (MB): 78.64\n","Forward/backward pass size (MB):
…
